…
trainX shape:  (6464, 128, 128, 3)
testX shape:  (2020, 128, 128, 3)
trainY shape:  (6464, 4)
testY shape:  (2020,)
valX shape:  (1616, 128, 128, 3)
valY shape:  (1616, 4)
[INFO] compiling model...
2023-12-02 11:17:58.783618: E tensorflow/stream_executor/cuda/cuda_driver.cc:265] failed call to cuInit: CUDA_ERROR_NO_DEVICE: no CUDA-capable device is detected
Model: "sequential"
_________________________________________________________________
 Layer (type)                Output Shape              Param #
=================================================================
 mobilenet_1.00_128 (Functio  (None, 4, 4, 1024)       3228864
 nal)

 global_average_pooling2d (G  (None, 1024)             0
 lobalAveragePooling2D)

 dropout (Dropout)           (None, 1024)              0

 flatten (Flatten)           (None, 1024)              0

 dense (Dense)               (None, 4)                 4100

=================================================================
Total params: 3,232,964
Trainable params: 4,100
Non-trainable params: 3,228,864
_________________________________________________________________
None
bat dau fit model MobileNet
Epoch 1/32
202/202 [==============================] - 74s 357ms/step - loss: 0.2210 - accuracy: 0.9270 - val_loss: 0.0172 - val_accuracy: 0.9969
Epoch 2/32
…
