…
trainX shape:  (6464, 128, 128, 3)
testX shape:  (2020, 128, 128, 3)
trainY shape:  (6464, 4)
testY shape:  (2020,)
valX shape:  (1616, 128, 128, 3)
valY shape:  (1616, 4)
[INFO] compiling model...
2023-12-03 11:15:10.702672: E tensorflow/stream_executor/cuda/cuda_driver.cc:265] failed call to cuInit: CUDA_ERROR_NO_DEVICE: no CUDA-capable device is detected
Model: "sequential"
_________________________________________________________________
 Layer (type)                Output Shape              Param #
=================================================================
 inception_v3 (Functional)   (None, 2, 2, 2048)        21802784

 global_average_pooling2d (G  (None, 2048)             0
 lobalAveragePooling2D)

 dropout (Dropout)           (None, 2048)              0

 flatten (Flatten)           (None, 2048)              0

 dense (Dense)               (None, 4)                 8196

=================================================================
Total params: 21,810,980
Trainable params: 8,196
Non-trainable params: 21,802,784
_________________________________________________________________
None
bat dau fit model InceptionV3
Epoch 1/54
101/101 [==============================] - 150s 1s/step - loss: 0.4196 - accuracy: 0.8782 - val_loss: 0.0365 - val_accuracy: 0.9876
Epoch 2/54
…
