…
_cropped/at_home/minus/item_701.jpg', 3], ['./data_cropped/at_home/sit/sit_929.jpg', 1]]
Chuan bi doc anh tu folder:
scale raw pixel / 255.0
train test split
trainX shape:  (6464, 128, 128, 3)
testX shape:  (2020, 128, 128, 3)
trainY shape:  (6464, 4)
testY shape:  (2020,)
valX shape:  (1616, 128, 128, 3)
valY shape:  (1616, 4)
[INFO] compiling model...
Model: "sequential"
_________________________________________________________________
 Layer (type)                Output Shape              Param #
=================================================================
 conv2d (Conv2D)             (None, 128, 128, 32)      2432

 max_pooling2d (MaxPooling2D  (None, 64, 64, 32)       0
 )

 conv2d_1 (Conv2D)           (None, 60, 60, 48)        38448

 max_pooling2d_1 (MaxPooling  (None, 30, 30, 48)       0
 2D)

 flatten (Flatten)           (None, 43200)             0

 dense (Dense)               (None, 256)               11059456

 dense_1 (Dense)             (None, 84)                21588

 dense_2 (Dense)             (None, 4)                 340

=================================================================
Total params: 11,122,264
Trainable params: 11,122,264
Non-trainable params: 0
_________________________________________________________________
None
bat dau fit model
2023-11-17 16:10:03.051216: W tensorflow/core/framework/cpu_allocator_impl.cc:82] Allocation of 1270874112 exceeds 10% of free system memory.
Epoch 1/32
202/202 [==============================] - 13s 53ms/step - loss: 0.1494 - accuracy: 0.9493 - val_loss: 0.0160 - val_accuracy: 0.9950
…
