…
data_cropped/at_home/sit/sit_4.jpg', 1], ['./data_cropped/at_home/sit/sit_1268.jpg', 1]]
Chuan bi doc anh tu folder:
scale raw pixel / 255.0
train test split
trainX shape:  (6464, 128, 128, 3)
testX shape:  (2020, 128, 128, 3)
trainY shape:  (6464, 4)
testY shape:  (2020,)
valX shape:  (1616, 128, 128, 3)
valY shape:  (1616, 4)
[INFO] compiling model...
Model: "sequential"
_________________________________________________________________
 Layer (type)                Output Shape              Param #
=================================================================
 inception_v3 (Functional)   (None, 2, 2, 2048)        21802784

 global_average_pooling2d (G  (None, 2048)             0
 lobalAveragePooling2D)

 dropout (Dropout)           (None, 2048)              0

 flatten (Flatten)           (None, 2048)              0

 dense (Dense)               (None, 4)                 8196

=================================================================
Total params: 21,810,980
Trainable params: 8,196
Non-trainable params: 21,802,784
_________________________________________________________________
None
bat dau fit model InceptionV3
2023-11-17 16:57:57.781387: W tensorflow/core/framework/cpu_allocator_impl.cc:82] Allocation of 1270874112 exceeds 10% of free system memory.
Epoch 1/32
…
