…
2023-12-04 23:18:58.019280: E tensorflow/stream_executor/cuda/cuda_driver.cc:265] failed call to cuInit: CUDA_ERROR_NO_DEVICE: no CUDA-capable device is detected
Downloading data from https://storage.googleapis.com/tensorflow/keras-applications/densenet/densenet121_weights_tf_dim_ordering_tf_kernels_notop.h5
29084464/29084464 [==============================] - 16s 1us/step
Model: "sequential"
_________________________________________________________________
 Layer (type)                Output Shape              Param #
=================================================================
 densenet121 (Functional)    (None, 4, 4, 1024)        7037504

 global_average_pooling2d (G  (None, 1024)             0
 lobalAveragePooling2D)

 dropout (Dropout)           (None, 1024)              0

 flatten (Flatten)           (None, 1024)              0

 dense (Dense)               (None, 4)                 4100

=================================================================
Total params: 7,041,604
Trainable params: 4,100
Non-trainable params: 7,037,504
_________________________________________________________________
None
bat dau fit model DenseNet121
Epoch 1/32
270/270 [==============================] - 310s 1s/step - loss: 0.3657 - accuracy: 0.8877 - val_loss: 0.0255 - val_accuracy: 0.9944
Epoch 2/32
…
