…
trainX shape:  (6464, 128, 128, 3)
testX shape:  (2020, 128, 128, 3)
trainY shape:  (6464, 4)
testY shape:  (2020,)
valX shape:  (1616, 128, 128, 3)
valY shape:  (1616, 4)
[INFO] compiling model...
2023-12-04 22:30:21.652854: E tensorflow/stream_executor/cuda/cuda_driver.cc:265] failed call to cuInit: CUDA_ERROR_NO_DEVICE: no CUDA-capable device is detected
Model: "sequential"
_________________________________________________________________
 Layer (type)                Output Shape              Param #
=================================================================
 densenet121 (Functional)    (None, 4, 4, 1024)        7037504

 global_average_pooling2d (G  (None, 1024)             0
 lobalAveragePooling2D)

 dropout (Dropout)           (None, 1024)              0

 flatten (Flatten)           (None, 1024)              0

 dense (Dense)               (None, 4)                 4100

=================================================================
Total params: 7,041,604
Trainable params: 4,100
Non-trainable params: 7,037,504
_________________________________________________________________
None
bat dau fit model DenseNet121
Epoch 1/54
270/270 [==============================] - 311s 1s/step - loss: 0.3563 - accuracy: 0.8800 - val_loss: 0.0199 - val_accuracy: 0.9963
Epoch 2/54
…
