…
d/at_home/lie/lie_wake_726.jpg', 0], ['./data_cropped/at_home/stand/stand_1816.jpg', 2]]
Chuan bi doc anh tu folder:
scale raw pixel / 255.0
train test split
trainX shape:  (6464, 128, 128, 3)
testX shape:  (2020, 128, 128, 3)
trainY shape:  (6464, 4)
testY shape:  (2020,)
valX shape:  (1616, 128, 128, 3)
valY shape:  (1616, 4)
[INFO] compiling model...
Model: "sequential"
_________________________________________________________________
 Layer (type)                Output Shape              Param #
=================================================================
 densenet121 (Functional)    (None, 4, 4, 1024)        7037504

 global_average_pooling2d (G  (None, 1024)             0
 lobalAveragePooling2D)

 dropout (Dropout)           (None, 1024)              0

 flatten (Flatten)           (None, 1024)              0

 dense (Dense)               (None, 4)                 4100

=================================================================
Total params: 7,041,604
Trainable params: 4,100
Non-trainable params: 7,037,504
_________________________________________________________________
None
bat dau fit model DenseNet121
2023-11-17 15:23:16.490666: W tensorflow/core/framework/cpu_allocator_impl.cc:82] Allocation of 1270874112 exceeds 10% of free system memory.
Epoch 1/54
…
