…
ped/at_home/lie/lie_wake_798.jpg', 0], ['./data_cropped/at_home/minus/item_267.jpg', 3]]
Chuan bi doc anh tu folder:
scale raw pixel / 255.0
train test split
trainX shape:  (6464, 128, 128, 3)
testX shape:  (2020, 128, 128, 3)
trainY shape:  (6464, 4)
testY shape:  (2020,)
valX shape:  (1616, 128, 128, 3)
valY shape:  (1616, 4)
[INFO] compiling model...
Model: "sequential"
_________________________________________________________________
 Layer (type)                Output Shape              Param #
=================================================================
 conv2d (Conv2D)             (None, 128, 128, 32)      2432

 max_pooling2d (MaxPooling2D  (None, 64, 64, 32)       0
 )

 conv2d_1 (Conv2D)           (None, 60, 60, 48)        38448

 max_pooling2d_1 (MaxPooling  (None, 30, 30, 48)       0
 2D)

 flatten (Flatten)           (None, 43200)             0

 dense (Dense)               (None, 256)               11059456

 dense_1 (Dense)             (None, 84)                21588

 dense_2 (Dense)             (None, 4)                 340

=================================================================
Total params: 11,122,264
Trainable params: 11,122,264
Non-trainable params: 0
_________________________________________________________________
None
bat dau fit model
2023-11-17 16:28:32.335705: W tensorflow/core/framework/cpu_allocator_impl.cc:82] Allocation of 1270874112 exceeds 10% of free system memory.
Epoch 1/54
2023-11-17 16:28:36.139808: W tensorflow/core/common_runtime/bfc_allocator.cc:290] Allocator (GPU_0_bfc) ran out of memory trying to allocate 1.24GiB with freed_by_count=0. The caller indicates that this is not a failure, but this may mean that there could be performance gains if more memory were available.
…
