…
trainX shape:  (6464, 128, 128, 3)
testX shape:  (2020, 128, 128, 3)
trainY shape:  (6464, 4)
testY shape:  (2020,)
valX shape:  (1616, 128, 128, 3)
valY shape:  (1616, 4)
[INFO] compiling model...
2023-12-05 06:40:59.195534: E tensorflow/stream_executor/cuda/cuda_driver.cc:265] failed call to cuInit: CUDA_ERROR_NO_DEVICE: no CUDA-capable device is detected
Model: "sequential"
_________________________________________________________________
 Layer (type)                Output Shape              Param #
=================================================================
 conv2d (Conv2D)             (None, 128, 128, 32)      2432

 max_pooling2d (MaxPooling2D  (None, 64, 64, 32)       0
 )

 conv2d_1 (Conv2D)           (None, 60, 60, 48)        38448

 max_pooling2d_1 (MaxPooling  (None, 30, 30, 48)       0
 2D)

 flatten (Flatten)           (None, 43200)             0

 dense (Dense)               (None, 256)               11059456

 dense_1 (Dense)             (None, 84)                21588

 dense_2 (Dense)             (None, 4)                 340

=================================================================
Total params: 11,122,264
Trainable params: 11,122,264
Non-trainable params: 0
_________________________________________________________________
None
bat dau fit model
Epoch 1/20
202/202 [==============================] - 155s 765ms/step - loss: 0.1438 - accuracy: 0.9579 - val_loss: 0.0698 - val_accuracy: 0.9765
Epoch 2/20
202/202 [==============================] - 170s 841ms/step - loss: 0.0492 - accuracy: 0.9878 - val_loss: 0.0522 - val_accuracy: 0.9858
…
