…
opped/at_home/lie/lie_wake_2012.jpg', 0], ['./data_cropped/at_home/sit/sit_69.jpg', 1]]
Chuan bi doc anh tu folder:
scale raw pixel / 255.0
train test split
trainX shape:  (6464, 128, 128, 3)
testX shape:  (2020, 128, 128, 3)
trainY shape:  (6464, 4)
testY shape:  (2020,)
valX shape:  (1616, 128, 128, 3)
valY shape:  (1616, 4)
[INFO] compiling model...
Model: "sequential"
_________________________________________________________________
 Layer (type)                Output Shape              Param #
=================================================================
 mobilenet_1.00_128 (Functio  (None, 4, 4, 1024)       3228864
 nal)

 global_average_pooling2d (G  (None, 1024)             0
 lobalAveragePooling2D)

 dropout (Dropout)           (None, 1024)              0

 flatten (Flatten)           (None, 1024)              0

 dense (Dense)               (None, 4)                 4100

=================================================================
Total params: 3,232,964
Trainable params: 4,100
Non-trainable params: 3,228,864
_________________________________________________________________
None
bat dau fit model MobileNet
2023-11-05 14:09:58.799970: W tensorflow/core/framework/cpu_allocator_impl.cc:82] Allocation of 1270874112 exceeds 10% of free system memory.
Epoch 1/54
…
